05-voice_assist/voice_assist/models/chochko.tflite (tflite, 206976 bytes, 9 tensors)

arith.constant f4 [1, 32]
00000000: 1e9f bdbe 4fb4 b53d 289b f7bd 69d0 b4be
00000010: f1c5 033d 3b93 c1be e275 98be ea76 5ebd
00000020: c040 0b3e bcff 293e 81f8 d03d 4c58 923d
00000030: 28fb c6be 9f2e f8bc 079d ea3d 51e5 ec3d
00000040: 8ec3 d03d 4c71 a23d 3277 78bd c35b 843d
00000050: 2d8c b73c 9957 b0be a062 353e 4e25 613d
00000060: e42a c6be 66ca e3bd 8051 db3d 2538 df3a
00000070: 61cc ec3d 828e 853e 5265 a3be 8ef1 843d
-0.3703546 0.08872282 -0.120901406 -0.35315254 0.032171194 -0.3780764 -0.29777437 -0.054312624
0.13598919 0.16601461 0.10203648 0.071457475 -0.38863492 -0.030295668 0.11455732 0.11567176
0.10193549 0.07931766 -0.06066055 0.06462815 0.022405708 -0.34441832 0.17713404 0.054967217
-0.38704598 -0.11122589 0.10708904 0.0017030282 0.1156242 0.26085287 -0.3191324 0.064913854

arith.constant1 f4 [32, 32]
00000000: 39b9 e13d 86c7 933c 4a59 af3c c043 6d3d
00000010: 5507 043e 2902 92bd eb35 e0bc 2a66 1c3d
00000020: 1795 903d 9516 e83c be51 2a3d 4521 2f3e
00000030: fdb1 03be c010 08be cf2c d53c b10b 043d
00000040: fea6 2c3e 3f46 c6bd ead8 20be d5b7 d6bd
00000050: 6da9 1e3e 7c53 6ebd 8f74 d9bd e609 2f3d
00000060: 35b5 013d 3124 093e 2c16 18bd ca1a 2dbd
00000070: ee91 fa3d 353d b3bd 707d 04be 0440 debb
00000080: 37cd c2bd a77e 823c 5a68 07be 0d6f 9cbd
00000090: 4c5b 803d a733 693d 978a f13d cc2e fa3c
000000a0: 9f2c 9c3d 98fe 103d 2a9d 683d 26a5 16be
000000b0: 4acc 2cbd dc08 2c3d 32c9 cabc 6dfb 24be
000000c0: cb0e 3bbe 04cb cbbd 76a3 083e 9e63 0d3e
000000d0: 6c51 3a3d 980d fb3d 112a 903d ff00 283e
000000e0: 28f4 12be 92b0 fb3d 9e93 56bd 6e35 f0bc
000000f0: 90c1 2c3e a652 bd3c 0e7f 463d 6c14 a93c
00000100: 14ea 66bc fdbf adbd 71d2 e0bc f538 04be
00000110: 09b1 13bd 5c21 0a3e 5c5a 343a ce2a a6bd
00000120: dae2 f9bd 519d 523d 69b0 3c3d 8786 2f3e
00000130: 1d3e 3cbd 3c78 9e3c bab3 adbd 45e5 1cbe
00000140: ae59 ed3d 87a5 563d 4e36 f23d 1e46 0abc
00000150: 785e 9f3d c035 c6bd 50fb e63d 42a4 f0bd
00000160: 50d9 26be 7e9a 0abe 4d57 863c f7cb a83d
00000170: f16d b93d 2675 e7bd 875d 88bd be3d e4bd
00000180: 8915 ccbd ed8f e8bd a7f3 40be b8ea 183d
00000190: 5391 af3d e3f2 223d 7357 123c 8639 b0bd
000001a0: 9208 3d3e a656 353e 2be4 e43d 98fd e8bb
000001b0: 2de7 2c3e 9376 063c c28d a63d ee89 cdbd
000001c0: ce3b babd db98 a0bd 5e23 ac3c 331b d1bd
000001d0: d90b 2c3e e936 133d 3c1c 8e3d c2b2 d03a
000001e0: cf3d 423e c57f 233d f7ae 853c 7fb5 a53d
000001f0: c32a 203e 8a97 f3bd 37da 9d3c 079c d6bd
00000200: 7ea8 ff3d 9e97 22bb 5a83 45be a0db 1abe
00000210: a948 313e 1a74 cabc 51df b1bd 537b f53d
00000220: 42dc 3ebd 0019 1fbd 8442 ce3c 0e0f 2fbd
00000230: cdc3 e2bd 07ca 1a3d 7dc9 163e 3117 443c
00000240: 3a82 19be 9f4d aa3d b0f0 05be cef1 aeba
00000250: 73e0 b13d 14f4 0cbd 1309 503c 7136 dd3d
00000260: 3b16 59bd c86b ec3c 1ed1 18bd 00e1 f23c
00000270: 6a78 053e f847 133e bf82 1e3e 4e00 f23d
00000280: bf72 0ebe 4752 bb3d e2e2 22be 5909 113e
00000290: 2df0 80bd 3f83 6d3d b395 0fbd 99df dd3c
000002a0: 4486 7cbd 6fe5 5e3c c6a5 10be a5d5 16be
000002b0: f2f6 5dbc a675 61bd f2fd 8a3d 82e7 85bd
000002c0: 3a28 1f3d b40b babd 5ea4 983d 993c f7bd
000002d0: f3ea 9e3d 85a8 25be 40bf 193c 47db 1abe
000002e0: eed1 0d3e 9762 273e 2a82 e73c 53b0 5f3c
000002f0: cccc 213e e557 10be 6512 4a3b 209b 16be
00000300: 394a 4ebc 7c44 d93d 4e3e 4c3d 7026 e6bd
00000310: dcde 15be adf7 ccbd aed5 0b3d ab27 f13c
00000320: eba4 1d3e 67d9 86bb a114 f0bb adb3 abbc
00000330: a0c6 b6bd f519 97bd e84e 7a3c ae6b e4bd
00000340: e3fe 163e 2653 b4bd e082 ff3d 7599 debc
00000350: f678 013e 59d0 f93d 3727 8539 14c5 cebd
00000360: 9a7c 083e 2cef 7dbd a1cd d4bd 82fc 1b3e
00000370: cb79 90bd a4c7 a43d 3185 bbbd e986 5fbd
00000380: a233 30ba 7cdb 6d3d 690a b2bd 8caf 303e
00000390: 9593 0abe a68a c13c bfbd 7e3d 20c2 093e
000003a0: a8bb ac3d 37ce c7bc 42c6 14bd bd70 bdbc
000003b0: d99e fc3d 39ec c2bd 3e55 b43c 5e3b a13d
000003c0: 59ea dabd afca 7b3d 9c1e 58bd af03 b0bd
000003d0: c5ab 01be 5451 e13d bce2 1c3e 6feb 283d
000003e0: 2db3 0f3d 660e 08bd a3d6 72bd ab50 02be
000003f0: 5052 9bbd 7980 21be 0bda 273e 0905 013d
0.110216565 0.018039476 0.021404881 0.05792594 0.12893422 -0.07129318 -0.02736946 0.03818337
0.07059687 0.02833108 0.04158186 0.17102535 -0.12860866 -0.1328764 0.026022343 0.032237712
0.16860577 -0.09681367 -0.15707746 -0.10484282 0.15494318 -0.058185086 -0.10617935 0.04273405
0.031666953 0.13392712 -0.03713052 -0.042261876 0.12234865 -0.08751909 -0.12938476 -0.0067825336
-0.09511798 0.015929533 -0.132234 -0.07638369 0.062674135 0.056934025 0.11794012 0.030539893
0.07625698 0.03539905 0.05679051 -0.14711437 -0.042187013 0.042000636 -0.02475414 -0.16111536
-0.18267362 -0.099508315 0.13343605 0.13807532 0.045487806 0.12258452 0.070392735 0.1640663
-0.1435095 0.122895375 -0.052386872 -0.029322352 0.16870713 0.023110699 0.048461013 0.02063962
-0.0140938945 -0.084838845 -0.027444096 -0.12912352 -0.036057506 0.13489288 0.00068799197 -0.08113633
-0.122014716 0.05141956 0.046066675 0.17141162 -0.045957673 0.019344442 -0.08481546 -0.15321834
0.11589371 0.052403953 0.11826764 -0.008439569 0.0778169 -0.09678221 0.11278403 -0.1175008
-0.16293836 -0.13535497 0.01639905 0.08242028 0.09054173 -0.11301641 -0.06658464 -0.11144589
-0.09965045 -0.11355577 -0.18842946 0.03733322 0.0857264 0.039782416 0.008931982 -0.08604722
0.184603 0.17708835 0.11176332 -0.007110309 0.16885062 0.008206981 0.08132507 -0.100360736
-0.09093438 -0.07841655 0.021012958 -0.10210266 0.16801395 0.03594104 0.06938979 0.0015922415
0.1896889 0.039916772 0.016318781 0.08091258 0.15641312 -0.11894138 0.019269092 -0.104789786
0.12483309 -0.002480961 -0.19288388 -0.15122843 0.17312874 -0.024713565 -0.08685172 0.11986413
-0.046596773 -0.0388422 0.025178201 -0.042738967 -0.11072502 0.037790325 0.14725299 0.01196842
-0.14991084 0.08315586 -0.13080096 -0.001334721 0.086853884 -0.03441246 0.012697476 0.108013995
-0.052999716 0.028859988 -0.037308805 0.029648304 0.13034216 0.14382923 0.15479563 0.11816464
-0.1391096 0.091465525 -0.15906861 0.14163722 -0.0629581 0.057986494 -0.035054874 0.027084159
-0.061651483 0.013604506 -0.14125738 -0.14729936 -0.013547646 -0.05504384 0.067867175 -0.06538297
0.038856722 -0.090842634 0.074532256 -0.12072105 0.07759657 -0.16177566 0.009383976 -0.1512271
0.13849613 0.16346203 0.02826031 0.013652879 0.1580078 -0.14096029 0.0030833718 -0.14707613
-0.012590938 0.106087655 0.049864106 -0.112378 -0.14635795 -0.10008178 0.034139328 0.02943786
0.15394942 -0.004115272 -0.007326678 -0.0209597 -0.089246035 -0.07377998 0.015277602 -0.11153351
0.14745669 -0.08804922 0.12476134 -0.027172783 0.12643799 0.12197942 0.00025396954 -0.100961834
0.13328782 -0.06199567 -0.10390783 0.15233043 -0.0705448 0.08045891 -0.091562636 -0.05457202
-0.0006721561 0.058070645 -0.08693392 0.17254466 -0.1353286 0.023625683 0.062192675 0.13452959
0.0843423 -0.024390323 -0.036321886 -0.023125047 0.12334985 -0.09517712 0.022013303 0.078726515
-0.106892295 0.06147259 -0.052763566 -0.085944526 -0.12663181 0.1100184 0.15320867 0.041240152
0.035082985 -0.033216856 -0.059286725 -0.12726085 -0.07584059 -0.15771665 0.1639177 0.031498943

arith.constant2 f4 [32, 1536]
00000000: fe22 a03c 1e1e a63c 0c23 ccbc a955 80bc
00000010: d2e2 39bc 9f2c 2e3c 26dd b13c 30aa 643c
00000020: 5f81 1cbd cd8d 133c 0610 2dbc 91d4 b63c
00000030: 6056 2fbc efef 133d 6161 4f3c 50b9 afbc
00000040: 29f1 ab3b 3125 983b 5dd9 c7bc 621b a0bc
00000050: 265c 9dbb d900 04bc 5fd9 923c f6fb 8bbc
00000060: 5ba7 e43a dbe2 953c a978 e03c 8a7a 37bd
00000070: 1468 17bc 6301 043c 4802 6a3c aa5a 993b
00000080: 875c 003c 99c9 503c cd0e 51bc 1bba 31bc
00000090: cd44 883c 347d 5cbc b2d4 1fbc d94f fa3b
000000a0: 771e 67bc 4c31 9c3b 2da7 a23c 1acb afbc
000000b0: 72be 03bd 8e97 a73c a917 3b3c 22d3 d83b
000000c0: 76d9 b53b 83a6 d83c 6236 d039 2f57 0b3d
000000d0: b194 82bc 127a 013c 1613 763c 4e3d 1cb8
000000e0: 241d b5b8 d89e a53c 83fe 8ebc bb16 8bbc
000000f0: fbaf aa3c 2073 9bbb fcec a139 b8fa 86bc
00000100: fad0 c6bc c8a2 383b 44e5 f73c d9ee 803b
00000110: a111 a4bb 7dce 41bc f6aa 7cbc 798a d5bc
00000120: 9cc4 0e3c db11 093c aec7 a53c b7e6 6c3c
00000130: 14b1 47bb a73a 5abc e5d7 ddbb ec90 1dbc
00000140: 2c18 77bc 194d 43bc b391 c7bc 9f5f 89bc
00000150: 591e 49bb 6f35 1bbd 2b94 a63c e085 bcbb
00000160: f1f0 71b8 b236 adbc 9f96 eabb bbee ad3c
00000170: 8ae8 2a3c fcd1 683c 21fc 49b8 764a a53b
00000180: 4913 953c 9382 733b c0f9 1fbc 8d96 7bbc
00000190: a8b5 823c 25bb 8e3c dac9 703b 6009 35bb
000001a0: c508 233c bfb3 a53c de89 683b 7760 073d
000001b0: 01a6 0bbd f476 cb3b 7e0f a4bc fe5d 2bbd
000001c0: edb4 53bc 2fd1 df3b 3653 78bc 37fb ac3b
000001d0: 8c7a 50bc 0943 463b cba3 013d 6e41 f739
000001e0: 3fd7 993c c884 2f3c b23b a63c 7de3 e3bc
000001f0: 9943 5cbb 634c 58bc 1d9e 343c 1225 81bc
00000200: b17c 043c d5e1 98bc e3b6 a9bc 664d bb3c
00000210: 491d 553c 96dd 1d3c 5ccb a73c 89c0 20bc
00000220: 92d9 463c 3f32 a93c f8c6 b4bc 581d 0a3a
00000230: fd61 c5bb 476a 50bc 1226 1f3c 14fa 9abc
00000240: 32cc 0bbc b1a8 053b f1f6 9f3c fa3f a63c
00000250: e505 3ebc 85d2 85ba f93b cb3c b873 a43c
00000260: ab61 333b e3a1 413c 6945 9d3c 47d4 a93c
00000270: 26b3 8d3c 1efb c03c 8122 8d3c 724f d33b
00000280: 6c17 a9bb ee80 3f3c 24db 573c 3745 57bc
00000290: ed9b 2dbc 742a 16bb 7a77 2a3c 9da8 b33c
000002a0: a342 8e3c 8b6c aa3c 54b9 25bc 597e 0c3d
000002b0: 369c b23c 754c 7e3c 233a a2bb 9181 91bb
000002c0: 7291 97bb a59e fdbb 8530 c13b c6a6 19bb
000002d0: 197c a63c 3f2e a739 7749 f23b 8312 313c
000002e0: c669 62bc 8ad5 2c3c a712 b33c 6328 483b
000002f0: 7889 f03c b750 8f3c eb4b 85bc fa26 c4bc
00000300: 919e 163d 2cee 18bc 33d6 8f3c ffa9 5e3c
00000310: cb4e a03c ccaf 26bc 5029 c23c 363f 003c
00000320: 5c69 e4bc 5c4b 3c3c 4d47 713b 7cfd 923c
00000330: 276c abbc 8fb6 d73c 09b7 203c 2b6e 47bc
00000340: f725 01bc 6dea adbc 3195 9f3c 9fc9 b73a
00000350: 6f4d f53b fba6 a33c 24be 963c 40a6 d1b9
00000360: 4521 b33c c9e4 0d3c 0bdf 0bba a913 e7bc
00000370: 1004 c53c 4fce 283c 2efc 82bc 3780 fcbc
00000380: 0d52 ccbc bb19 43bb 3616 4f3c 412f 86bc
00000390: b8c7 11bc 1c4c 55bc 8f7f 6fbc e494 333c
000003a0: 4839 893b 3c59 043c 9175 c5bc 6e8f 053a
000003b0: 33ef 9f3c e6b4 3dbc 781f 163c d4eb 13ba
000003c0: 543e 2e3c 60d9 563c fc7e 003d 8478 293b
000003d0: 9c8a ca3b 6577 bc3c fa09 c43c 6e03 93bc
000003e0: 8f6b 103c 3115 a43c 7f3a 85bc 9cab 743c
000003f0: 18ac be3a c894 053a 1239 5abc 6c25 b0bc
0.019547936 0.020278033 -0.024919055 -0.015665846 -0.011345582 0.010630756 0.021711897 0.0139565915
-0.038209315 0.009005976 -0.010562902 0.022318156 -0.010701746 0.03611749 0.012657494 -0.021450669
0.0052472544 0.0046431054 -0.02439564 -0.019544307 -0.0048022447 -0.008056843 0.017925916 -0.017087918
0.0017444895 0.01829665 0.027401285 -0.044794597 -0.009241123 0.008056971 0.01428277 0.0046799975
0.00783456 0.012743377 -0.012759876 -0.010847594 0.01663437 -0.013457585 -0.0097553 0.007638913
-0.0141063845 0.004766619 0.019855106 -0.021459151 -0.032164045 0.02045801 0.011419215 0.006616966
0.005549605 0.026446586 0.0003971337 0.03401869 -0.015940042 0.007902639 0.015019199 -3.7250393e-05
-8.6361804e-05 0.020217344 -0.017455345 -0.016978612 0.020835867 -0.0047439486 0.0003088488 -0.016476974
-0.02426957 0.0028173197 0.03026069 0.003934723 -0.0050069843 -0.011829016 -0.01542162 -0.026067005
0.0087138675 0.0083660735 0.020236816 0.014459304 -0.0030470537 -0.013319648 -0.0067701214 -0.009617072
-0.015081447 -0.011920237 -0.024361467 -0.016769229 -0.0030688255 -0.037892755 0.020334324 -0.005753264
-5.768327e-05 -0.021144245 -0.0071590687 0.021232 0.010431418 0.01421022 -4.8156948e-05 0.005044277
0.018197672 0.0037156686 -0.009764135 -0.015355718 0.015955761 0.017423222 0.0036741407 -0.0027623996
0.009950821 0.020227311 0.0035482566 0.03305098 -0.03409386 0.0062092487 -0.020026919 -0.041837685
-0.012921554 0.0068303565 -0.015156558 0.0052789706 -0.01272453 0.0030252358 0.031650346 0.0004716026
0.018779395 0.01071281 0.020292137 -0.027818436 -0.0033609627 -0.013201806 0.011024025 -0.015764747
0.008086369 -0.018662373 -0.02071709 0.022864055 0.01300747 0.00963535 0.020482711 -0.009811529
0.012136834 0.020653842 -0.022067532 0.0005268655 -0.006023644 -0.012720651 0.0097136665 -0.018918075
-0.008532571 0.0020394737 0.01952693 0.020294178 -0.011598085 -0.0010209834 0.02480887 0.02007471
0.0027371447 0.011818382 0.019198136 0.020731105 0.017297339 0.023557242 0.017228367 0.0064486796
-0.005160263 0.011688454 0.013174806 -0.013139061 -0.010596258 -0.0022913488 0.010404462 0.021930987
0.01736576 0.02080371 -0.010114986 0.034300182 0.021803003 0.015521158 -0.004950778 -0.0044404943
-0.0046254927 -0.007739859 0.0058956766 -0.0023445352 0.020322846 0.00031887178 0.0073940116 0.010807636
-0.013819164 0.010548959 0.02185948 0.003054165 0.029362425 0.017494543 -0.016271552 -0.023944367
0.036772314 -0.009334128 0.017558193 0.013590335 0.019568821 -0.010173749 0.02370134 0.007827571
-0.02788227 0.011492576 0.003681618 0.017943136 -0.020925594 0.026332168 0.009809264 -0.012172262
-0.007882587 -0.021229947 0.01948032 0.001402188 0.0074860374 0.019977083 0.018401213 -0.00039987452
0.02186645 0.008660504 -0.0005335665 -0.028207617 0.024049789 0.010303094 -0.01598939 -0.030822856
-0.024941469 -0.0029769975 0.012639573 -0.016379954 -0.008897714 -0.013018634 -0.014617815 0.010960791
0.0041877367 0.008077916 -0.024103912 0.000509492 0.019523239 -0.011578774 0.009162776 -0.0005642746
0.010634977 0.01311335 0.0313711 0.0025859186 0.0061810743 0.02300615 0.023930538 -0.017945971
0.0088147065 0.020029636 -0.016263245 0.014933493 0.0014547138 0.00050957175 -0.013319271 -0.02150222

model_8/tf.__operators__.add/AddV2/y f4 [32]
00000000: aa2a b43c 160d 9f3c ef50 023c e39c e33b
00000010: 25a8 8ebc 9a61 5a3c 8d20 4ebc 2ca7 ea3c
00000020: d33e 1b3c eab7 30bc 029d 0e3c b53f 2f3c
00000030: 9a1e 7abb a2fc 0b3c 9319 6f3c e690 a2bc
00000040: 8d09 8f3c 094f 54bc 68a4 89bb e88a 34bb
00000050: 094c 8c3c b8b6 84bc 4cf9 5fbc 33a0 6e3b
00000060: e634 d2bb dcad b03c e550 0dbc 5d75 7b3b
00000070: 969e 9bbc 3640 113c 39be afbc 0209 d3bb
0.021993 0.01941542 0.007953866 0.0069461926 -0.017414162 0.013328934 -0.012581003 0.028644167
0.009475428 -0.010786036 0.008704426 0.010696341 -0.0038165213 0.008544119 0.0145935 -0.019844484
0.017460609 -0.012958297 -0.004200507 -0.0027548615 0.0171261 -0.016200408 -0.013670277 0.0036411404
-0.0064149974 0.021567278 -0.008625244 0.0038369515 -0.018996518 0.008865407 -0.02145301 -0.006440283

model_8/tf.__operators__.add_1/AddV2/y f4 [32]
00000000: b815 9abd 6028 753d c96d 8abc adfa a5bd
00000010: 6db2 953d 7af9 7a3d 05fe 5e3d 06f7 0fbe
00000020: e224 35be 6111 3fbd e439 303e 41bb eb3c
00000030: 2d65 aebc 70ef 1cbe a5d0 f1bd 3c9c b8bd
00000040: 4aa8 a9bd 3da0 2e3e c839 c1bc 9bc7 ce3d
00000050: 6fa3 ec3d c76b 9b3c 7329 d13d de94 1ebe
00000060: 4bad 9dbd f74d 623d bc24 13be b8c6 813d
00000070: c1bc 14bd ed6b f3bd f165 64bd a056 e73d
-0.07523674 0.059852958 -0.016898053 -0.08104453 0.07309423 0.061273076 0.05444147 -0.14059076
-0.17689851 -0.046647433 0.17209584 0.028775813 -0.021288479 -0.15325713 -0.11807374 -0.09014174
-0.08284052 0.17053314 -0.023587123 0.100966655 0.1155461 0.01897229 0.10212984 -0.15486476
-0.07699069 0.055250134 -0.14369482 0.06336731 -0.036312822 -0.118858196 -0.05576128 0.11295819

model_8/tf.math.add_2/Add/y f4 [1, 32]
00000000: faf8 8dba 5b07 90bb b1c7 4abc 9d2f b23c
00000010: b53f debb f821 b63c 6368 a0bc d24d 8a3c
00000020: 7f3b ba3c 706a d4bb 9726 02bd 3842 99bb
00000030: d5cb 30bc 751e 14bc d96d 003d 69e3 37bc
00000040: 66f7 b43c 62b9 cab9 e133 fabb 9b74 58ba
00000050: 4f99 9f3c d608 f8bb 8011 4abc 84a9 beba
00000060: 3c21 083c dbfc 86bc b0dc 11bc 6ddc 73bc
00000070: d344 c7bb 5815 f0bb 9196 f139 540d adbb
-0.0010831647 -0.004395408 -0.012376712 0.02175122 -0.006782497 0.022232994 -0.019581025 0.01688281
0.022733448 -0.006482415 -0.031775083 -0.0046770833 -0.010790785 -0.009040465 0.03135476 -0.011223652
0.022090625 -0.00038666563 -0.007635579 -0.00082571217 0.019482283 -0.0075694127 -0.012333274 -0.0014546369
0.008308705 -0.016477993 -0.008902714 -0.014884097 -0.0060812025 -0.007326763 0.00046079283 -0.00528113

model_8/tf.math.add_5/Add/y f4 [1, 32]
00000000: 7c5b 863e 274d 69bc fbc6 d53d fe87 8d3e
00000010: 53da 283d 5f4b 833e 7e45 933e 58fa f5bc
00000020: d8d9 a3ba 7e7f 5fbc e8e6 1b3d fa9f 7d3d
00000030: 75c7 b03e 20fe 7f3b 5e58 4c3c 2d9e 3eba
00000040: fb4f 0e3d c609 293d 244e 543c 554b 283b
00000050: ad0b ac3c b68e 8f3e 3f8a 5a3c 27d1 3e3d
00000060: 7226 8d3e a3e6 a0bd b153 1f3d de53 61bc
00000070: ac1e 2a3c caeb ac3d fa69 863e 95a2 1abb
0.26241672 -0.014239586 0.10438343 0.27642816 0.041223835 0.2564344 0.28763956 -0.0300266
-0.0012500836 -0.013641236 0.038062006 0.061920144 0.34527174 0.0039061382 0.01247224 -0.0007271495
0.034744244 0.041269086 0.012958083 0.0025679667 0.021001661 0.28038567 0.0133386245 0.046586182
0.27568394 -0.078564905 0.038898174 -0.013752906 0.010383289 0.08443411 0.2625273 -0.0023595442

model_8/tf.math.multiply_10/Mul/y f4 [1, 32]
00000000: 3563 813f 031d 813f fc79 813f 1ff6 803f
00000010: ed8c 7f3f 223d 863f ae44 7b3f 8ccf 753f
00000020: 09ce 823f f767 7f3f 1a33 7a3f 6f9b 7c3f
00000030: c46d 7d3f 348d 7f3f dc2c 783f 877e 7d3f
00000040: 88f9 843f 29b5 803f 48b0 7b3f bab3 843f
00000050: 25af 823f f4bb 7b3f ac74 7e3f 7529 7e3f
00000060: 0863 763f 4d7d 7d3f 5258 7e3f 0d74 7e3f
00000070: 150e 7f3f 4686 7f3f 725a 833f 9819 7e3f
1.01084 1.0086979 1.0115352 1.007511 0.9982441 1.0487406 0.9815167 0.96019816
1.0219127 0.9976801 0.97734225 0.9867467 0.98995614 0.99824834 0.9694345 0.9902119
1.0388651 1.0055286 0.9831586 1.0367348 1.02097 0.9833367 0.9939678 0.9928201
0.9624486 0.9901932 0.99353516 0.9939583 0.9963086 0.9981426 1.0261977 0.992578

model_8/tf.math.multiply_22/Mul/y f4 [1, 32]
00000000: 5e3a a13f 25b3 7d3f e537 8a3f 4e02 a53f
00000010: c549 853f 1c75 9f3f 4759 a43f f694 773f
00000020: dd62 803f 92f7 803f 0daa 883f 7121 883f
00000030: 676d b83f a13e 803f 6f44 813f 73e3 7f3f
00000040: acf2 863f 058d 8c3f 393f 803f 68ab 823f
00000050: a067 813f f5ac a53f cc26 853f 8240 853f
00000060: 9818 a53f dc58 703f a855 893f b52b 7e3f
00000070: 044b 853f 86c8 903f f417 9e3f bff0 7f3f
1.2595937 0.9910148 1.0798308 1.2891328 1.0413138 1.2457614 1.2839745 0.9671167
1.0030171 1.0075552 1.0676895 1.0635206 1.4408387 1.0019113 1.0099009 0.99956435
1.0542808 1.0980536 1.0019294 1.0208559 1.0109749 1.2943407 1.0402465 1.0410311
1.289813 0.9388559 1.0729265 0.9928544 1.0413518 1.1311195 1.235106 0.99976724
